simg/checkpoints/lp_pred_model.ckpt (torch, 202326 bytes, 66 tensors)

model.layers.0.edge_encoder.weight f4 [16, 4]
0.023526954 0.020763934 0.24729256 0.3151689 0.13251697 0.1347062 0.78390473 -0.13364923
0.32748422 0.3389212 0.38756883 -0.36168647 -0.05078152 0.37367004 0.86266965 0.41179314
-0.007155843 0.37039545 0.33592057 0.35892385 0.17966214 0.18226 0.2764097 -0.059148155
0.38579005 -0.09276033 0.21986881 0.1611452 0.07217894 0.07465537 -0.5683768 -0.36500248
0.039384365 0.033529844 -0.32457218 0.29786882 0.10574373 0.09288957 -0.07757719 -0.30110687
-0.012401429 -0.01897936 -0.5576297 -0.16503768 -0.43001923 -0.41155106 0.41811126 0.021447014
-0.04366969 -0.045077663 -0.46442965 0.053802337 0.20496936 -0.6094728 -0.31654102 0.33087674
0.33882797 0.32379204 -0.7285836 -0.08476425 0.28924537 0.2876653 -0.055001013 -0.077588975
00000000: 99bb c03c 2019 aa3c 433a 7d3e d15d a13e
00000010: 87b2 073e 6cf0 093e fbad 483f 58db 08be
00000020: 03ac a73e 1487 ad3e 6c6f c63e f82e b9be
00000030: 4800 50bd ae51 bf3e ebd7 5c3f 8dd6 d23e
00000040: 907b eabb 79a4 bd3e c8fd ab3e dec4 b73e
00000050: 5af9 373e 5ea2 3a3e 9285 8d3e 5645 72bd
00000060: 4686 c53e 21f9 bdbd 4a25 613e 3f03 253e
00000070: 8dd2 933d eae4 983d 2481 11bf 9be1 babe
00000080: 8051 213d 9756 093d 532e a6be 4382 983e
00000090: 2b90 d83d e33c be3d cae0 9ebd ae2a 9abe
000000a0: 5d2f 4bbc 9a7a 9bbc d2c0 0ebf a3ff 28be
000000b0: 7b2b dcbe d2b6 d2be ae12 d63e a6b1 af3c
000000c0: fdde 32bd 5ba3 38bd b9c9 edbe d75f 5c3d
000000d0: 7de3 513e 6906 1cbf aa11 a2be ad68 a93e
000000e0: dc7a ad3e 12c8 a53e 7484 3abf e198 adbd
000000f0: f817 943e de48 933e be48 61bd f8e6 9ebd

model.layers.0.edge_encoder.bias f4 [16]
-0.026146358 -0.14047389 -0.32986414 -0.07309751 -0.09387824 -0.18042922 -0.28449228 -0.064280085
-0.036672868 -0.10239914 0.021506354 0.41677147 0.04887795 0.060055062 -0.32313147 -0.28868055
00000000: e330 d6bc 63d8 0fbe f4e3 a8be 26b4 95bd
00000010: 3c43 c0bd 70c2 38be f9a8 91be 47a5 83bd
00000020: 4a36 16bd a4b6 d1bd 182e b03c 1263 d53e
00000030: 3f34 483d 4cfc 753d 7d71 a5be f0cd 93be

model.layers.0.pre_nns.0.0.weight f4 [16, 48]
-0.14884964 0.34696072 0.121540345 0.24933422 0.17112894 -0.17104143 0.056697212 -0.3778985
-0.25730437 -0.057127744 -0.5445532 -0.0073533016 -0.6935237 -0.4159889 0.12433819 0.095191434
-0.20794486 0.48328006 -0.20231251 0.41363844 0.39106667 -0.3741096 0.025946796 0.36455598
0.4480699 -0.18906665 -0.14430417 0.037625656 -0.39799583 -0.4213417 -0.05966672 -0.053284798
0.06907471 -0.05176866 0.00091870845 -0.23455092 -0.23342857 0.014440596 0.39575782 -0.038399424
0.015272352 -0.006918374 0.0093127955 -0.010324016 0.0019694695 0.33936682 0.05311878 0.04726695
-0.13702692 -0.03854551 -0.009668001 0.30661565 0.023410093 0.24006476 0.029870857 -0.12371908
0.18558611 0.13556953 0.12937053 0.00296148 0.3638937 0.33789712 -0.05136118 0.025935883
-0.13115542 0.7014474 -0.12970491 0.3151189 0.4579312 0.36506552 -0.093259305 0.24087928
-0.60244614 0.3257217 0.36359328 0.08960952 0.4147093 -0.21006067 -0.046725262 0.052532792
-0.09932487 0.077091075 -0.002625835 -0.14868909 -0.20519389 -0.03883659 0.03622614 0.08335252
-0.014513431 0.027113598 -0.019354917 0.063917205 -0.013461212 0.27689946 -0.118153766 -0.07154344
-0.22282556 -0.24347241 -0.02936724 0.23950255 -0.03866347 0.14655088 0.0408721 0.3438537
0.20868792 0.10632213 0.31477383 0.118023604 0.3240753 0.26344672 -0.057139285 -0.093803525
-0.2718372 0.7117703 -0.24518867 0.15061903 0.27684784 0.7797881 0.11152615 0.033041954
0.46088305 0.14922635 0.35975268 -0.009471697 0.46938652 0.000763526 -0.022058493 0.04544173
-0.09048332 -0.06795719 0.019884212 -0.12532112 0.10741697 0.023303362 0.041651722 0.059271608
-0.029740186 -0.0488799 0.105814196 -0.006940374 0.113850415 0.03976237 0.10537124 -0.03185607
0.01375961 -0.03351011 -0.06499071 0.2057967 -0.25043288 -0.28767473 0.007080665 0.14556228
0.19458409 -0.04211084 -0.34159642 -0.12599169 -0.26131478 -0.21044795 0.015244818 -0.06518142
0.104345985 0.12759271 0.12839107 0.06964144 -0.7084769 -0.41067192 0.042540643 0.04199852
0.12589148 -0.04303448 -0.21619451 0.06986182 -0.10913741 -1.0715964 -0.019495701 0.014622476
0.056037307 0.0672002 0.00748043 -0.08016248 -0.029848162 0.07700982 0.054859508 -0.008740583
0.013553222 0.060949147 0.13933282 -0.121428035 -0.05242054 0.12805274 0.051396646 -0.017907465
0.2682796 0.41306108 0.00023273828 0.04728534 0.003131984 -0.29640067 -0.015170356 -0.3142847
0.070975065 -0.077023305 -0.44217676 0.03462153 -0.565616 -0.59491044 0.1214344 0.1247074
0.63971746 -0.5975284 -0.22789231 -0.06666252 -0.23521806 -0.10645907 0.0074175163 -0.45490244
-0.65327746 0.36451954 -0.7370372 0.0042212442 -0.4333143 -0.029378068 -0.016061539 0.07991415
-0.0491822 -0.0645134 -0.03419661 -0.19663933 -0.09711601 -0.016044397 -0.13664186 0.027230226
0.020962298 0.024489176 0.04419016 -0.13337941 0.04710615 0.18950978 0.18485574 0.011027482
0.26640472 0.05196073 -0.12858997 -0.16751537 -0.34279975 0.18341272 -0.08575615 0.15220252
-0.34613279 0.28737998 0.24136625 -0.0026316629 0.16766717 0.040439706 0.01961243 -0.013290338
00000000: 0a6c 18be d6a4 b13e 25ea f83d 7851 7f3e
00000010: 6d3c 2f3e 7c25 2fbe 563b 683d ea7b c1be
00000020: 66bd 83be c8fe 69bd d767 0bbf f7f3 f0bb
00000030: c58a 31bf 7ffc d4be 05a5 fe3d baf3 c23d
00000040: 7fef 54be 7c70 f73e 032b 4fbe 6bc8 d33e
00000050: e439 c83e 4b8b bfbe 608e d43c 15a7 ba3e
00000060: 6b69 e53e b09a 41be 79c4 13be 5c1d 1a3d
00000070: 1cc6 cbbe 19ba d7be 1765 74bd 2941 5abd
00000080: 0b77 8d3d 600b 54bd 7bd5 703a 1e2e 70be
00000090: e607 6fbe 4098 6c3c c5a0 ca3e b748 1dbd
000000a0: e338 7a3c 87b3 e2bb b294 183c 1026 29bc
000000b0: 3712 013b 7dc1 ad3e 1493 593d fd9a 413d
000000c0: c950 0cbe e6e1 1dbd 8966 1ebc bafc 9c3e
000000d0: 86c6 bf3c 89d3 753e bab3 f43c 6e60 fdbd
000000e0: 490a 3e3e bdd2 0a3e b579 043e 6415 423b
000000f0: 4650 ba3e da00 ad3e 1a60 52bd 7d77 d43c
00000100: 9b4d 06be 0f92 333f 5dd1 04be 4457 a13e
00000110: f575 ea3e dee9 ba3e bcfe bebd 0fa9 763e
00000120: e939 1abf ffc4 a63e e628 ba3e 3285 b73d
00000130: c754 d43e 251a 57be fd62 3fbd a02c 573d
00000140: d66a cbbd ede1 9d3d 3316 2cbb f441 18be
00000150: 591e 52be 1e13 1fbd dc61 143d bab4 aa3d
00000160: bec9 6dbc 561d de3c 348e 9ebc 06e7 823d
00000170: 6a8c 5cbc c4c5 8d3e 9afa f1bd 5e85 92bd
00000180: 622c 64be d550 79be 9193 f0bc 2840 753e
00000190: 965d 1ebd 6f11 163e 8169 273d 980d b03e
000001a0: 49b2 553e 6bbf d93d 092a a13e 5cb6 f13d
000001b0: 33ed a53e 7de2 863e e20a 6abd 101c c0bd
000001c0: 3f2e 8bbe 9436 363f bd12 7bbe e03b 1a3e
000001d0: 00bf 8d3e 31a0 473f d267 e43d 0057 073d
000001e0: ddf8 eb3e cbce 183e 8131 b83e 2d2f 1bbc
000001f0: 6e53 f03e 5d27 483a 03b4 b4bc 1c21 3a3d
00000200: 524f b9bd 242d 8bbd 37e4 a23c 2e54 00be
00000210: 6efd db3d b1e6 be3c ff9a 2a3d c9c6 723d
00000220: b1a1 f3bc 4a36 48bd 1db5 d83d 146c e3bb
00000230: 682a e93d dedd 223d e0cc d73d 837b 02bd
00000240: fd6f 613c e641 09bd d919 85bd 5fbc 523e
00000250: bd38 80be 1a4a 93be ec04 e83b 470e 153e
00000260: 0d41 473e 6b7c 2cbd bae5 aebe f703 01be
00000270: 0dcb 85be ab7f 57be 67c5 793c d67d 85bd
00000280: 59b3 d53d aaa7 023e f378 033e 2ca0 8e3d
00000290: be5e 35bf 9743 d2be 193f 2e3d a406 2c3d
000002a0: b2e9 003e ec44 30bd 1862 5dbe b713 8f3d
000002b0: 6f83 dfbd 122a 89bf 73b5 9fbc 1c93 6f3c
000002c0: 6087 653d 42a0 893d 651e f53b 3a2c a4bd
000002d0: 2284 f4bc 53b7 9d3d 5db4 603d aa34 0fbc
000002e0: 550e 5e3c d0a5 793d 43ad 0e3e 43af f8bd
000002f0: ecb6 56bd 4220 033e 4a85 523d adb2 92bc
00000300: f25b 893e be7c d33e 350b 7439 46ae 413d
00000310: f941 4d3b d4c1 97be 168d 78bc ede9 a0be
00000320: 605b 913d 65be 9dbd fe64 e2be 4ecf 0d3d
00000330: 36cc 10bf 0d4c 18bf 99b2 f83d 9866 ff3d
00000340: 86c4 233f 9ff7 18bf 9a5c 69be 5c86 88bd
00000350: 01dd 70be 3707 dabd a30e f33b f9e8 e8be
00000360: 313d 27bf 4ea2 ba3e 78ae 3cbf 5d52 8a3b
00000370: 5fdb ddbe 46aa f0bc 7d93 83bc 08aa a33d
00000380: 4673 49bd 9a1f 84bd bf11 0cbd d25b 49be
00000390: c2e4 c6bd 8a6f 83bc d8eb 0bbe ec11 df3c
000003a0: 20b9 ab3c 869d c83c be00 353d 9d94 08be
000003b0: 61f2 403d da0e 423e d34a 3d3e 9dac 343c
000003c0: 3366 883e c6d4 543d 17ad 03be 2689 2bbe
000003d0: 7383 afbe 8bd0 3b3e eca0 afbd fada 1b3e
000003e0: 5138 b1be 7823 933e b728 773e fa77 2cbb
000003f0: f1b0 2b3e 1ba4 253d 3faa a03c b8bf 59bc

model.layers.0.pre_nns.0.0.bias f4 [16]
-0.044922058 -0.049280416 0.12164538 0.014111985 0.0059952606 -0.12202292 -0.08008312 -0.10866102
-0.037733335 0.034485962 -0.071387045 0.03324386 0.040065236 0.09905717 -0.028873663 -0.11923649
00000000: 3100 38bd 43da 49bd 3721 f93d f535 673c
00000010: e473 c43b 27e7 f9bd 9e02 a4bd ab89 debd
00000020: 458e 1abd 2741 0d3d 5f33 92bd b72a 083d
00000030: 721b 243d 7cde ca3d 7688 ecbc 4332 f4bd

model.layers.0.post_nns.0.0.weight f4 [30, 96]
0.20817466 -0.3717289 -0.20589063 -0.07196309 -0.110190004 0.25304174 0.054720167 -0.2022189
-0.40588194 0.2323302 -0.3238995 -0.08669464 0.13315204 0.070123166 -0.054191235 -0.08609743
0.15187149 -0.14688784 -0.10851864 0.031073228 0.22504936 0.17043361 -0.20514533 0.0840078
-0.116338715 -0.012477202 0.114828594 0.0902826 0.066847846 0.05220586 0.16127954 0.07402167
0.12603873 0.05819616 -0.10403844 0.1793856 0.36517155 -0.14394534 0.16141796 0.022311581
0.10814461 0.09398212 0.0034455503 0.23505555 0.060988028 -0.31239414 -0.15805149 0.22295788
0.22626826 0.27128696 0.21755464 -0.05679989 0.011792657 -0.24334681 0.046496592 0.22596009
0.035020445 0.12880845 0.11481904 0.09117483 -0.19635233 -0.30720946 -0.40112665 0.23577674
-0.123282805 -0.22354613 -0.111106604 -0.05535679 0.32002565 0.05739839 0.15543191 0.061096925
-0.017960113 0.31628737 -0.11943595 -0.20251215 0.40921146 -0.15164386 -0.10504701 -0.05849041
0.3464029 0.4372854 0.40058938 -0.042027783 -0.18656461 -0.20832522 -0.072301514 0.2561533
0.086648166 -0.10442578 0.19508885 0.2784934 -0.27712503 0.03986964 -0.13970208 0.10573029
0.15329103 -0.14066172 0.15220259 0.06780256 -0.2825155 -0.06653108 0.016054384 0.04775362
-0.4269708 -0.35793316 0.15950303 0.07897623 -0.14044213 -0.14299671 0.013586503 0.028337663
-0.369695 -0.16784345 -0.107801266 -0.12072335 -0.011726576 0.32529813 -0.3184582 -0.044447612
-0.17853676 0.14178988 0.29542208 0.13439001 0.07865006 0.21694058 0.106435634 -0.08053656
0.020450706 -0.013999841 0.012271922 0.12055549 0.21037418 -0.33804223 0.27860704 0.079741344
0.17712379 0.14209181 -0.18153536 0.045286912 0.23603575 -0.23811239 -0.13403024 0.019908983
0.16927372 0.06263067 -0.030755473 0.06312218 0.06159237 0.02217493 0.27838174 -0.14060669
0.25486758 -0.29348382 -0.28273588 -0.038105167 0.15865141 -0.07325572 -0.21661857 0.44638857
0.36800903 0.014139456 0.14948288 0.053022847 -0.30276078 -0.41739422 0.3632405 0.21769612
0.010040263 0.5481483 0.06373049 -0.0017619098 -0.059329607 -0.05807881 0.02006502 -0.092799395
0.146055 -0.01505059 0.013296413 0.11457828 0.3437307 0.5316432 0.08835732 -0.034100126
0.21116926 -0.5183127 0.02342761 0.14631656 0.38877016 -0.02343447 0.055242624 0.4342762
0.1982044 0.129307 -0.1734539 -0.15568969 0.18994677 -0.0110292435 0.022862686 -0.18340343
-0.058881495 0.30428314 -0.29219428 -0.064804405 -0.0145285865 -0.011812421 0.06690026 0.03974655
0.18080172 0.14083122 0.024121609 0.055979617 -0.03674818 -0.22002757 0.08370033 0.08968487
0.099207014 0.021479443 -0.15892194 0.03789884 -0.025078474 -0.22070952 -0.28554603 0.17142665
-0.13256061 -0.18935288 -0.25172 0.010357031 -0.07563823 0.25021365 -0.25475228 -0.20724186
0.090806775 0.0447346 0.27223268 0.20773292 -0.053746175 -0.12221713 -0.051016357 0.16363665
-0.0035981028 0.21148203 0.14183196 -0.15211599 -0.48547128 0.46120676 -0.14029795 0.050273612
-0.118518166 0.25167203 0.27319065 0.054032713 -0.23702548 -0.18692122 -0.45299783 0.033015557
00000000: bd2b 553e 4053 bebe fed4 52be 6261 93bd
00000010: 4cab e1bd b08e 813e 4122 603d 7912 4fbe
00000020: c2cf cfbe f8e7 6d3e 28d6 a5be f68c b1bd
00000030: 0259 083e bc9c 8f3d a1f7 5dbd d953 b0bd
00000040: 3384 1b3e c469 16be 053f debd 488d fe3c
00000050: 5773 663e 2686 2e3e 9e11 52be 480c ac3d
00000060: fe42 eebd 2e6d 4cbc 412b eb3d 15e6 b83d
00000070: 86e7 883d d0d5 553d 7726 253e ac98 973d
00000080: 4c10 013e 195f 6e3d 1b12 d5bd dcb0 373e
00000090: c4f7 ba3e 6866 13be c04a 253e c7c6 b63c
000000a0: ec7a dd3d b379 c03d bece 613b 67b2 703e
000000b0: 95ce 793d 20f2 9fbe 40d8 21be 124f 643e
000000c0: deb2 673e 20e6 8a3e a5c6 5e3e 00a7 68bd
000000d0: fd35 413c e82f 79be 3673 3e3d 1562 673e
000000e0: 9971 0f3d 5de6 033e 3f26 eb3d dfb9 ba3d
000000f0: 9610 49be 8f4a 9dbe 7960 cdbe 756f 713e
00000100: b27b fcbd 47e9 64be dc8b e3bd cdbd 62bd
00000110: 67da a33e 931a 6b3d 8b29 1f3e c540 7a3d
00000120: 1621 93bc 6bf0 a13e d69a f4bd 585f 4fbe
00000130: 2a84 d13e 8748 1bbe e322 d7bd a493 6fbd
00000140: b95b b13e dfe3 df3e 0d1a cd3e 5325 2cbd
00000150: cb0a 3fbe 3553 55be d112 94bd 8626 833e
00000160: 9874 b13d 2fdd d5bd 5fc5 473e b096 8e3e
00000170: 55e3 8dbe 594e 233d 100e 0fbe 1f89 d83d
00000180: 53f8 1c3e a009 10be ffda 1b3e 12dc 8a3d
00000190: dfa5 90be 7241 88bd 7c84 833c 4d99 433d
000001a0: eb9b dabe 0443 b7be c354 233e 4abe a13d
000001b0: 10d0 0fbe bb6d 12be ed99 5e3c 6324 e83c
000001c0: aa48 bdbe 27df 2bbe e9c6 dcbd ce3d f7bd
000001d0: d320 40bc 7a8d a63e f40c a3be b30e 36bd
000001e0: 57d2 36be 5e31 113e 9041 973e 899d 093e
000001f0: 4813 a13d ac25 5e3e edfa d93d 5af0 a4bd
00000200: 3d88 a73c 975f 65bc 2c10 493c cce5 f63d
00000210: 546c 573e df13 adbe 95a5 8e3e 6e4f a33d
00000220: f05f 353e 8480 113e 68e4 39be c57e 393d
00000230: 5bb3 713e bcd3 73be 393f 09be 2a18 a33c
00000240: 1756 2d3e 8244 803d e7f2 fbbc 3446 813d
00000250: 4848 7c3d 33a8 b53c 0d88 8e3e 33fb 0fbe
00000260: 017e 823e 8343 96be c2c2 90be 2a14 1cbd
00000270: 8475 223e 1807 96bd 42d1 5dbe 0b8d e43e
00000280: ae6b bc3e 2da9 673c 0a12 193e 7c2e 593d
00000290: 7603 9bbe b2b4 d5be a9fa b93e bbeb 5e3e
000002a0: ea7f 243c 7253 0c3f 2285 823d e2ef e6ba
000002b0: 9a03 73bd 0ce4 6dbd 665f a43c 9c0d bebd
000002c0: 718f 153e c096 76bc 33d9 593c 04a8 ea3d
000002d0: 78fd af3e c519 083f aff4 b43d 93ac 0bbd
000002e0: c13c 583e 24b0 04bf 42eb bf3c 02d4 153e
000002f0: e20c c73e a5f9 bfbc 1746 623d 7359 de3e
00000300: 18f6 4a3e 0e69 043e e69d 31be 1e6d 1fbe
00000310: 6881 423e 00b4 34bc 874a bb3c 1cce 3bbe
00000320: b92d 71bd 00cb 9b3e 7d9a 95be 2cb8 84bd
00000330: 4f09 6ebc e288 41bc 0103 893d 47cd 223d
00000340: 1624 393e 0f36 103e ae9a c53c e24a 653d
00000350: 4285 16bd e84e 61be 146b ab3d b3ac b73d
00000360: 0c2d cb3d a8f5 af3c 6fbc 22be d03b 1b3d
00000370: 5f71 cdbc ad01 62be 1733 92be 788a 2f3e
00000380: f8bd 07be b9e5 41be 72e1 80be 89b0 293c
00000390: 37e8 9abd 011c 803e e46e 82be 3637 54be
000003a0: e7f8 b93d a13b 373d 1562 8b3e f0b7 543e
000003b0: f324 5cbd fa4c fabd 87f6 50bd 5e90 273e
000003c0: 26ce 6bbb bf8e 583e 663c 113e 4bc4 1bbe
000003d0: b18f f8be 4b23 ec3e 44aa 0fbe b4eb 4d3d
000003e0: a7b9 f2bd 28db 803e a5df 8b3e 6851 5d3d
000003f0: cfb6 72be 4768 3fbe 55ef e7be 523b 073d

model.layers.0.post_nns.0.0.bias f4 [30]
-0.05327379 0.04914938 0.033317816 -0.014047268 -0.071214885 -0.1693335 0.081724755 0.16838244
-0.110323794 -0.18357214 -0.034290038 -0.14979519 0.13656433 -0.022708055 0.22451401 -0.03655843
0.13387676 -0.046800368 0.11547886 -0.031995516 0.011994886 0.013896996 0.17167169 -0.098811634
0.010214097 -0.20085266 -0.07866145 0.10547386 0.005439171 -0.054215748
00000000: 9e35 5abd dc50 493d 4378 083d 8326 66bc
00000010: 1cd9 91bd c365 2dbe 4f5f a73d 726c 2c3e
00000020: 71f1 e1bd 56fa 3bbe b673 0cbd e963 19be
00000030: 85d7 0b3e 3e06 babc 00e7 653e 4bbe 15bd
00000040: fd16 093e beb1 3fbd 2e80 ec3d bb0d 03bd
00000050: 3386 443c 3ab0 633c b4ca 2f3e c15d cabd
00000060: 0759 273c 52ac 4dbe 4119 a1bd ae02 d83d
00000070: 133b b23b 5511 5ebd

model.layers.0.lin.weight f4 [30, 30]
-4.8353715e-05 0.26353484 0.081974745 0.17865664 -0.05597958 0.004438316 0.02308197 0.04878063
-0.094421916 0.4184472 0.09068693 -0.19542758 -0.26019427 -0.20575194 0.19205365 0.19553727
0.11980534 -0.28505978 -0.20233077 -0.29496515 0.11897104 0.26969555 -0.34548575 -0.25459594
-0.02170679 0.18572907 0.19648398 -0.2201237 -0.19674091 0.04492059 0.26312026 0.1223509
-0.17232546 -0.0153919775 -0.021854628 -0.15911533 0.21033089 0.38521254 0.052392226 0.31235275
0.21193637 0.33318087 -0.077577986 -0.0064434893 0.31304243 -0.32005838 -0.2989919 -0.27262634
-0.506475 0.2228695 -0.2705875 0.011967576 0.46266976 0.10411165 0.3980398 -0.17160623
0.1818865 -0.5004815 -0.3506002 -0.09969726 -0.40620062 -0.21429694 -0.31808713 -0.04392505
0.04181377 -0.15162371 -0.33295238 -0.36923963 0.060857467 -0.2244051 -0.30260202 0.30986008
-0.23493505 0.25836396 -0.52707136 -0.24902445 -0.33102307 -0.24723078 0.1850206 0.025826978
-0.20334837 0.09751305 0.44752058 -0.18099363 0.1497478 0.17963472 -0.5001715 0.26184404
0.41220823 -0.28544927 -0.28463537 -0.10190665 0.18944399 0.029331613 0.18239813 0.52381015
-0.06944497 0.025369382 -0.12290668 0.31300098 -0.21269237 -0.0752593 0.22868809 0.15460673
-0.19374913 0.03639568 0.23644707 0.03979668 -0.28956023 0.14555646 0.025618518 -0.21081203
-0.17956212 0.10797854 -0.14787243 0.11573498 0.14043725 -0.11872274 -0.089586735 -0.33140078
0.030276695 0.21312319 -0.4227054 0.13548265 0.10916495 -0.27603182 -0.4369982 -0.27173316
0.21052065 0.22969297 -0.26062304 0.11842349 0.13155487 0.34010938 -0.15716003 -0.40122268
-0.24281548 0.15042628 0.32261124 0.27225178 -0.05120665 -0.31520045 0.2423603 -0.21266806
0.006742694 0.61405504 -0.13655874 0.21960811 0.415191 0.019107154 -0.2129093 0.04768049
-0.025297057 -0.18981005 0.09944945 0.123008266 0.2669698 -0.10280636 0.07566335 0.05778312
0.052920844 -0.2255611 -0.16966231 -0.3264987 -0.20123549 -0.24662419 0.06755645 0.01652947
-0.13458225 -0.21761748 -0.23896787 -0.28856617 -0.162242 -0.56335044 -0.08917016 -0.13925284
0.1712182 0.23135008 -0.10041227 -0.10831761 -0.17639795 0.009173163 -0.18234165 0.26692504
0.22157124 -0.2591451 -0.19407609 -0.060079247 0.31898132 0.042718288 -0.2568008 -0.17541173
-0.2557841 -0.021974666 -0.12702517 0.15579864 -0.09675728 0.13600762 0.034306686 -0.16868332
0.028750861 0.17538722 0.036761977 -0.05811679 -0.058064323 0.34132844 -0.3201574 0.11466823
0.31517476 0.09568204 0.012631331 0.2500681 -0.19508958 -0.1312455 -0.11899398 -0.19174594
-0.24768445 0.066524304 -0.029048318 0.057027124 -0.13710311 -0.20682153 -0.01882382 0.48839176
-0.32732558 -0.14396262 -0.03002042 -0.22943892 -0.61840814 -0.1337498 -0.12809524 -0.093904145
-0.123953916 -0.39779142 -0.068942435 -0.14432034 -0.15217495 -0.23814917 0.3828641 -0.11739836
0.07091674 -0.28896683 0.007379117 -0.4532175 -0.08583401 0.23246916 0.23650701 -0.6678626
-0.1385442 -0.021108137 0.17750232 0.28762865 0.07361927 0.0573118 -0.76725215 -0.40189978
00000000: 68cf 4ab8 0aee 863e 60e2 a73d c4f1 363e
00000010: d84a 65bd 4b6f 913b 6616 bd3c 33ce 473d
00000020: 4760 c1bd b63e d63e 12ba b93d 2b1e 48be
00000030: 2f38 85be a3b0 52be b6a9 443e ec3a 483e
00000040: 815c f53d 5bf3 91be cc2f 4fbe ac05 97be
00000050: 17a7 f33d 8915 8a3e 82e3 b0be 665a 82be
00000060: 70d2 b1bc c32f 3e3e 1933 493e 1b68 61be
00000070: 7376 49be a7fe 373d b3b7 863e 1c93 fa3d
00000080: 1676 30be a22e 7cbc 7a08 b3bc 21ef 22be
00000090: fb60 573e 943a c53e 3b99 563d b3ec 9f3e
000000a0: d905 593e af96 aa3e 35e1 9ebd e823 d3bb
000000b0: 1947 a03e b1de a3be 7715 99be ae95 8bbe
000000c0: 58a8 01bf e737 643e 728a 8abe a713 443c
000000d0: 0de3 ec3e 7d38 d53d dfcb cb3e 8bb9 2fbe
000000e0: 7440 3a3e 8e1f 00bf df81 b3be 142e ccbd
000000f0: 87f9 cfbe a870 5bbe 51dc a2be c1ea 33bd
00000100: ea44 2b3d 3f43 1bbe bc78 aabe fa0c bdbe
00000110: ae45 793d 73ca 65be a7ee 9abe fba5 9e3e
00000120: d092 70be 4848 843e 26ee 06bf 4400 7fbe
00000130: db7b a9be 112a 7dbe 0a76 3d3e 1993 d33c
00000140: 8e3a 50be ecb4 c73d 6b21 e53e 6556 39be
00000150: 7d57 193e 2af2 373e 3d0b 00bf 6c10 863e
00000160: f50c d33e 6826 92be babb 91be 6fb4 d0bd
00000170: 9bfd 413e da48 f03c 93c6 3a3e 6c18 063f
00000180: 2a39 8ebd 73d3 cf3c 7fb6 fbbd aa41 a03e
00000190: 07cc 59be 8c21 9abd 362d 6a3e 3a51 1e3e
000001a0: 2c66 46be a313 153d 2e1f 723e d801 233d
000001b0: 3d41 94be c10c 153e eddd d13c 1cdf 57be
000001c0: 22df 37be da23 dd3d df6b 17be 7606 ed3d
000001d0: c8ce 0f3e e824 f3bd 4079 b7bd 5dad a9be
000001e0: d506 f83c f73c 5a3e d86c d8be f7bb 0a3e
000001f0: e091 df3d 0b54 8dbe 3abe dfbe 9c20 8bbe
00000200: ba92 573e a234 6b3e 6270 85be 0488 f23d
00000210: 52b6 063e d122 ae3e 8fee 20be 0f6d cdbe
00000220: 9fa4 78be 5909 1a3e 4d2d a53e 9664 8b3e
00000230: 10be 51bd f461 a1be 4c2d 783e a8c5 59be
00000240: d1f1 dc3b b632 1d3f 0ed6 0bbe f3e0 603e
00000250: ea93 d43e 9b86 9c3c e504 5abe 9e4c 433d
00000260: c63b cfbc 915d 42be 27ac cb3d c2eb fb3d
00000270: 44b0 883e 248c d2bd 63f5 9a3d fead 6c3d
00000280: 87c3 583d 7df9 66be f5bb 2dbe d62a a7be
00000290: ad10 4ebe 0d8b 7cbe 095b 8a3d d068 873c
000002a0: eecf 09be 1ed7 5ebe feb3 74be f2be 93be
000002b0: c422 26be bc37 10bf d89e b6bd 4c98 0ebe
000002c0: d353 2f3e 09e7 6c3e f3a4 cdbd a0d5 ddbd
000002d0: aaa1 34be 094b 163c c5b7 3abe 66aa 883e
000002e0: 92e3 623e abae 84be e2bb 46be a815 76bd
000002f0: 8551 a33e 5ff9 2e3d 657b 83be 229f 33be
00000300: 22f6 82be 3704 b4bc e312 02be ae89 1f3e
00000310: ae28 c6bd 9545 0b3e 2b85 0c3d 52bb 2cbe
00000320: ed86 eb3c b598 333e ba93 163d df0b 6ebd
00000330: dbd4 6dbd 9ac2 ae3e aceb a3be 2dd7 ea3d
00000340: 965e a13e f2f4 c33d a4f3 4e3c ed08 803e
00000350: 90c5 47be 3865 06be 1eb3 f3bd 0c59 44be
00000360: fea0 7dbe e53d 883d bdf6 edbc 4695 693d
00000370: c264 0cbe 06c9 53be 6934 9abc 7c0e fa3e
00000380: 3897 a7be f06a 13be 62ed f5bc 09f2 6abe
00000390: ff4f 1ebf b5f5 08be 662b 03be d150 c0bd
000003a0: 8ddb fdbd 51ab cbbe b131 8dbd b6c8 13be
000003b0: c0d3 1bbe 60dd 73be c306 c43e 8d6e f0bd
000003c0: cc3c 913d 76f3 93be 85cc f13b 200c e8be
000003d0: bec9 afbd 650c 6e3e e52e 723e 0bf9 2abf
000003e0: 88de 0dbe f9ea acbc 2bc3 353e 1044 933e
000003f0: b3c5 963d c7bf 6a3d a36a 44bf cfc5 cdbe

model.layers.0.lin.bias f4 [30]
0.050488964 -0.30220616 -0.5466356 -0.10948257 -0.14931124 -0.05527376 0.23023048 -0.6450379
-0.490326 0.070680685 0.09419251 -0.6955255 -0.18347001 -0.33056825 -0.07507258 -0.3149189
0.18178248 -0.38876835 -0.37857708 -0.37269825 -0.5168382 -0.20433643 -0.051402424 -0.5376143
-0.33200878 -0.23635827 -0.17844655 -0.5112316 -0.95215255 0.20936418
00000000: 84cd 4e3d c4ba 9abe 50f0 0bbf 6638 e0bd
00000010: 0ce5 18be bd66 62bd 8ac1 6b3e 3421 25bf
00000020: 020c fbbe 09c1 903d 01e8 c03d f60d 32bf
00000030: 90df 3bbe 3e40 a9be a7bf 99bd 0d3d a1be
00000040: 3025 3a3e a50c c7be dbd4 c1be 4ed2 bebe
00000050: 824f 04bf 923d 51be 598b 52bd 17a1 09bf
00000060: 0efd a9be e707 72be b1ba 36be 13e0 02bf
00000070: 45c0 73bf 9063 563e

model.layers.2.edge_encoder.weight f4 [30, 4]
-0.35583198 0.0676131 0.50579077 -0.02149722 -0.27238208 -0.22908482 -1.142973 -0.030859664
-0.2718157 0.23225506 0.13090746 0.38891813 0.2571299 0.14790721 -0.73346835 0.31299192
-0.1263039 0.057254072 -0.08552422 -0.01895349 0.07405499 0.54746133 0.21269579 -0.37112945
0.29628465 -0.5976051 -0.0851057 0.3544158 0.26025704 -0.23040189 -0.13832222 -0.20299967
0.08957203 0.03532476 -0.4258186 0.17466582 -0.105337426 0.29584065 0.38454935 -0.17600763
0.37269655 0.43484622 -0.28974533 -0.21207431 -0.029114917 0.2399522 0.005693441 -0.34167343
0.04095041 0.042083178 -1.4879278 -0.0061674058 -0.2806871 -0.2618525 -0.45084545 -0.20307922
-0.3929397 -0.25623074 -1.0456208 -0.20505579 -0.23997533 0.6558139 0.280647 -0.3517663
-0.25930986 -0.24230473 -0.6964682 -0.055642217 -0.018673697 0.041235723 -0.1526285 0.07983053
-0.2760362 -0.3192753 -0.09170867 0.24630988 -0.018847125 -0.023607677 1.0536662 0.38447025
0.39888316 -0.3157257 -0.8666018 -0.27629846 0.0450647 -0.5381948 0.11369278 0.06724803
0.1841403 0.07760974 0.5114682 -0.28473562 0.14469439 0.20457156 -0.5328161 -0.09382058
0.26807913 0.14615722 -0.19191018 -0.20490186 0.015985373 0.19273065 -0.03736806 -0.3782037
-0.03653291 -0.012691557 1.040652 -0.31092614 0.20791212 -0.4844698 0.043510806 0.24441835
-0.09791122 0.18274671 -0.4395891 0.12279771 -0.08134119 -0.12282802 0.163309 0.13211586
00000000: 9c2f b6be bd78 8a3d 817b 013f f01a b0bc
00000010: aa75 8bbe 3695 6abe f04c 92bf 68cd fcbc
00000020: 6d2b 8bbe 45d4 6d3e 9b0c 063e 4720 c73e
00000030: 88a6 833e fd74 173e 95c4 3bbf 7a40 a03e
00000040: cf55 01be 3f83 6a3d 5227 afbd 5944 9bbc
00000050: 25aa 973d 6d26 0c3f edcc 593e ae04 bebe
00000060: 9fb2 973e a6fc 18bf e64b aebd fd75 b53e
00000070: 6940 853e 79ee 6bbe 57a4 0dbe 25df 4fbe
00000080: 8a71 b73d b2b0 103d e504 dabe 99db 323e
00000090: 26bb d7bd 6d78 973e a7e3 c43e 583b 34be
000000a0: 15d2 be3e 2aa4 de3e 8059 94be 022a 59be
000000b0: 6882 eebc 08b6 753e 0b90 ba3b d2ef aebe
000000c0: 9ebb 273d 695f 2c3d 6b74 bebf f317 cabb
000000d0: 38b6 8fbe 8811 86be 37d5 e6be 00f4 4fbe
000000e0: 642f c9be ad30 83be e7d6 85bf 25fa 51be
000000f0: 18bc 75be 6be3 273f f7b0 8f3e b61a b4be
00000100: 43c4 84be bb1e 78be bd4b 32bf 18e9 63bd
00000110: 95f9 98bc cae6 283d a54a 1cbe 307e a33d
00000120: 9e54 8dbe 0d78 a3be c1d1 bbbd a838 7c3e
00000130: 4965 9abc e364 c1bc 89de 863f 49d9 c43e
00000140: 6a3a cc3e cda6 a1be 9ed9 5dbf fe76 8dbe
00000150: c395 383d 22c7 09bf c3d7 e83d 56b9 893d
00000160: 468f 3c3e dbf1 9e3d 94ef 023f dec8 91be
00000170: c42a 143e 357b 513e a366 08bf 0125 c0bd
00000180: ab41 893e 3daa 153e 1a84 44be cbd1 51be
00000190: c2f3 823c 2f5b 453e 400f 19bd eaa3 c1be
000001a0: 88a3 15bd 40f0 4fbc 1634 853f b631 9fbe
000001b0: eae6 543e 6d0c f8be 6338 323d ce48 7a3e
000001c0: ad85 c8bd f421 3b3e d311 e1be 5e7d fb3d
000001d0: 3696 a6bd 428d fbbd 793a 273e 6149 073e

model.layers.2.edge_encoder.bias f4 [30]
0.33611155 0.27107447 0.3596758 -0.19533813 -0.12136606 -0.19832337 -0.02169414 -0.05067549
-0.070812166 -0.1027823 -0.3779249 0.007526793 -0.03281302 0.42101133 0.47400984 -0.10259695
0.25272316 0.18722129 0.28934237 0.018523343 -0.11639246 -0.1682098 -0.1408759 -0.1665737
-0.21974577 -0.073836386 0.030153764 0.21649781 -0.07689064 0.10963224
00000000: d016 ac3e 46ca 8a3e 6d27 b83e b806 48be
00000010: c58e f8bd 4815 4bbe e9b7 b1bc 1a91 4fbd
00000020: f805 91bd 877f d2bd 5f7f c1be 51a3 f63b
00000030: f266 06bd cc8e d73e 6bb1 f23e 5a1e d2bd
00000040: ee64 813e f0b6 3f3e af24 943e 44be 973c
00000050: 2c5f eebd 313f 2cbe c641 10be 4c92 2abe
00000060: 0905 61be 8837 97bd 0705 f73c 9ab1 5d3e
00000070: d778 9dbd de86 e03d

model.layers.2.pre_nns.0.0.weight f4 [30, 90]
0.031277288 0.11059318 -0.3744273 -0.16634986 0.052351348 0.29844844 -0.10233126 -0.09910065
0.21576507 -0.099527806 0.17110844 -0.18353134 0.027879646 -0.03152097 -0.24669203 -0.035716403
-0.001385565 -0.12450206 -0.36838865 -0.017285781 -0.17863405 -0.2681741 -0.011861816 -0.046350993
-0.3811332 -0.034186 -0.10048865 0.03994364 0.37670684 -0.079051554 -0.26383975 0.24821076
0.08440716 0.21320896 0.43657964 0.04830845 0.10815521 0.124718934 -0.5718031 0.21112014
-0.18150899 -0.018266901 -0.064888716 0.29273635 -0.22541656 -0.23432279 0.09562194 -0.02489712
0.34165147 0.16480853 0.31317258 -0.111439094 0.064120375 -0.41084883 0.49808973 0.5077249
0.39508465 -0.10491028 -0.112932414 0.07795606 -0.09375765 0.060900707 0.044089146 -0.059052113
0.04581955 -0.10461653 -0.021752773 0.057970054 -0.03530258 -0.08307007 -0.07164378 0.047749735
0.040777415 0.090115376 -0.10442409 0.019026564 -0.04347954 -0.07261444 0.054756816 -0.05320534
0.035659574 -0.04760567 0.011895224 -0.007098647 0.041389253 0.05293148 0.066970855 -0.0071381493
-0.028345458 0.0022008766 0.04917656 0.03218428 0.107401825 0.008573115 -0.23252076 0.20713106
0.06483899 -0.020106947 0.08548011 0.18909362 0.16230397 -0.00046200404 -0.013056382 -0.040195968
0.19490457 0.091449894 0.21590348 -0.113303974 0.14629263 0.047498036 0.16148959 0.22114186
0.00971637 -0.22919686 0.104345836 0.14513288 -0.03237076 0.023386141 -0.07417784 0.31202736
-0.15544371 0.3322359 0.057806946 0.23819293 0.34982777 -0.2753758 -0.1234226 0.33393532
-0.13917057 0.04223496 0.12783857 0.24653134 -0.0648858 -0.24021313 0.003433858 -0.11086625
-0.11176754 0.15116361 -0.1843342 -0.049950384 -0.12795974 0.06624161 -0.09331457 0.13620777
-0.10201861 -0.29332063 -0.07301998 -0.3875498 0.5601023 -0.10898279 -0.17870899 0.025263356
-0.20583841 -0.13495371 0.061782934 0.108270556 -0.024188697 0.004646742 -0.10668984 -0.016259655
0.108252354 0.040413387 0.09010481 -0.0154217845 -0.0046614935 -0.033133164 0.01003279 -0.068626285
0.0037260929 0.030208884 -0.040021725 0.22634052 0.015607234 0.045288127 -0.12111343 0.10315262
-0.05137841 -0.1260244 0.107683234 -0.14308967 0.12996604 -0.044709958 -0.22349519 -0.055333138
0.037787598 0.06628914 -0.39284003 0.13530597 0.08697015 -0.15935981 -0.11899853 0.33718595
0.16310214 0.5056605 -0.04023134 -0.015279772 -0.20893873 -0.052473508 -0.258262 0.117285036
-0.3736254 -0.14371184 0.19002178 -0.053703446 -0.42383754 -0.307779 0.12082944 -0.048051946
-0.5547481 -0.24282062 0.31586787 0.3258841 0.17884013 0.38758883 0.22946309 -0.42251372
-0.2222266 -0.14824139 0.15366586 -0.16112109 -0.089721404 0.17266093 -0.52762395 0.18222061
0.061451957 -0.23225388 -0.017835407 0.083100736 0.26393113 0.105345815 0.56188637 0.15538378
-0.33502343 -0.24633561 0.44139412 0.19677158 0.42526126 -0.12323633 1.2155364 -0.13631958
-0.2591908 -0.12572423 -0.28618932 0.22070786 -0.027026486 -0.3041234 0.39989164 0.31972146
0.100018464 -0.1156716 -0.039884377 -0.40101302 0.028311145 -0.0077847955 -0.20034964 -0.36007574
00000000: 9d1c 003d ad7e e23d efb4 bfbe 9e57 2abe
00000010: 5e6e 563d 3cce 983e 0d93 d1bd 48f5 cabd
00000020: 85f1 5c3e 3cd5 cbbd 0d37 2f3e a4ef 3bbe
00000030: db63 e43c 221c 01bd d69c 7cbe 5d4b 12bd
00000040: d99b b5ba f0fa febd 709d bcbe e99a 8dbc
00000050: d8eb 36be 1e4e 89be 1058 42bc 8ada 3dbd
00000060: e423 c3be 9e06 0cbd fecc cdbd f19b 233d
00000070: b8df c03e c8e5 a1bd 0116 87be f62a 7e3e
00000080: a9dd ac3d 7353 5a3e 5e87 df3e 15df 453d
00000090: 7b80 dd3d a46c ff3d b061 12bf e12f 583e
000000a0: 7edd 39be 78a4 95bc 60e4 84bd 8ae1 953e
000000b0: 99d3 66be 50f2 6fbe 70d5 c33d 0cf5 cbbc
000000c0: f1ec ae3e 91c3 283e 2858 a03e 2e3a e4bd
000000d0: 8b51 833d c75a d2be 9e05 ff3e 42fa 013f
000000e0: 8948 ca3e 33db d6bd 1c49 e7bd 6da7 9f3d
000000f0: 0304 c0bd 0573 793d d296 343d a1e0 71bd
00000100: 48ad 3b3d 3141 d6bd df32 b2bc 0272 6d3d
00000110: 7099 10bd a420 aabd f9b9 92bd 3a95 433d
00000120: 3806 273d 698e b83d 4cdc d5bd 99dd 9b3c
00000130: 9a17 32bd e1b6 94bd af48 603d d8ed 59bd
00000140: c60f 123d 2afe 42bd 30e4 423c c49b e8bb
00000150: c787 293d aece 583d 0428 893d 23e7 e9bb
00000160: bc34 e8bc 953c 103b 5c6d 493d aad3 033d
00000170: 7df5 db3d 4076 0c3c ec19 6ebe 2a1a 543e
00000180: 4eca 843d 53b7 a4bc 3210 af3d c2a1 413e
00000190: 0333 263e 2239 f2b9 6fea 55bc 87a4 24bd
000001a0: 1095 473e 154a bb3d cd15 5d3e ea0b e8bd
000001b0: bccd 153e 4d8d 423d 875d 253e 0373 623e
000001c0: 6931 1f3c 95b2 6abe 45b3 d53d b79d 143e
000001d0: 3497 04bd 4b94 bf3c 8dea 97bd 0dc2 9f3e
000001e0: a32c 1fbe d31a aa3e fac6 6c3d d9e8 733e
000001f0: a01c b33e 0ffe 8cbe fdc4 fcbd 92f9 aa3e
00000200: bb82 0ebe 91fe 2c3d 1de8 023e b672 7c3e
00000210: d9e2 84bd 6efa 75be 940a 613b d80d e3bd
00000220: 61e6 e4bd a2ca 1a3e 1bc2 3cbe c698 4cbd
00000230: e107 03be aea9 873d b61b bfbd 0d7a 0b3e
00000240: 22ef d0bd 1f2e 96be 808b 95bd ed6c c6be
00000250: dd62 0f3f 5e32 dfbd 7dff 36be 19f5 ce3c
00000260: 4ec7 52be 4e31 0abe 1a10 7d3d f4bc dd3d
00000270: 6027 c6bc b243 983b 3480 dabd f832 85bc
00000280: 69b3 dd3d 8288 253d df88 b83d a7ab 7cbc
00000290: 71bf 98bb a4b6 07bd 9260 243c f08b 8cbd
000002a0: 7731 743b 9f78 f73c d2ed 23bd cfc5 673e
000002b0: 7cb5 7f3c 0b80 393d 510a f8bd ae41 d33d
000002c0: 2b72 52bd 8a0c 01be 0789 dc3d 1986 12be
000002d0: d115 053e ca21 37bd ecdb 64be 00a5 62bd
000002e0: 2bc7 1a3d 9ac2 873d 5422 c9be a68d 0a3e
000002f0: 681d b23d 382f 23be 80b5 f3bd a3a3 ac3e
00000300: 3f04 273e f772 013f 9ec9 24bd 0258 7abc
00000310: 09f4 55be 76ee 56bd eb3a 84be 2333 f03d
00000320: d44b bfbe 3229 13be 1295 423e 25f8 5bbd
00000330: 3c01 d9be 3695 9dbe 6d75 f73d 1ed2 44bd
00000340: f903 0ebf f8a5 78be 6fb9 a13e 48da a63e
00000350: de21 373e 0b72 c63e 5ff8 6a3e b853 d8be
00000360: 5f8f 63be 97cc 17be 955a 1d3e edfc 24be
00000370: dbbf b7bd 07ce 303e 5d12 07bf 0a98 3a3e
00000380: 0cb5 7b3d f6d3 6dbe 8f1b 92bc b830 aa3d
00000390: fb21 873e 8cbf d73d c9d7 0f3f ed1c 1f3e
000003a0: 3188 abbe 673f 7cbe 69fe e13e 7d7e 493e
000003b0: d8bb d93e 5463 fcbd b296 9b3f 5c97 0bbe
000003c0: a8b4 84be dabd 00be 6887 92be 3e01 623e
000003d0: a666 ddbc 10b6 9bbe 99be cc3e 88b2 a33e
000003e0: 7bd6 cc3d 3be5 ecbd cd5d 23bd 9451 cdbe
000003f0: c6ec e73c 9917 ffbb 7528 4dbe d95b b8be

model.layers.2.pre_nns.0.0.bias f4 [30]
-0.024481347 -0.2018057 -0.13184509 0.05889702 -0.30120483 -0.12844042 0.11624639 0.40022
-0.020899052 0.21652175 0.043740176 0.036487978 0.0049281637 -0.040604413 0.16333087 0.07591352
0.055920865 0.074558094 -0.080996074 0.0585932 0.012857663 0.16028306 -0.12372336 0.16422223
-0.04145732 0.071058705 -0.051261775 0.22120382 0.27802205 -0.04142505
00000000: 1b8d c8bc 27a6 4ebe 6602 07be 003e 713d
00000010: 8537 9abe e385 03be 9612 ee3d a3e9 cc3e
00000020: 7d34 abbc e1b7 5d3e e628 333d 6b74 153d
00000030: 6f7c a13b d050 26bd 3540 273e 8c78 9b3d
00000040: 470d 653d eab1 983d 45e1 a5bd 6cff 6f3d
00000050: f3a8 523c 3e21 243e ac62 fdbd df29 283e
00000060: 27cf 29bd 3a87 913d def7 51bd 4183 623e
00000070: e858 8e3e 50ad 29bd

model.layers.2.post_nns.0.0.weight f4 [30, 180]
-0.019305946 0.6552973 -0.20390043 0.2340874 0.047526635 0.017012727 0.29355937 0.25240394
0.16559668 0.23786752 -0.07113379 -0.0132603 -0.041484967 0.5784075 0.40226942 0.2684391
-0.18602622 -0.06708928 0.17339084 -0.040509272 -0.06601639 0.061622173 -0.114348486 0.30033892
-0.3215262 0.40629372 0.28569713 -0.10740067 0.13412978 0.07972519 0.02574704 -0.07822637
0.09469603 0.07065796 -0.3961586 0.025259573 0.07594363 -0.257063 0.028611157 0.10998806
0.080115356 -0.06813883 -0.034212634 0.19075519 -0.21584733 0.110092945 0.09020149 -0.19400842
-0.0037164418 -0.2862369 0.33727065 -0.09728766 -0.40342915 0.22681473 -0.4762401 -0.0017535114
-0.19121054 -0.095715575 0.26012495 -0.011131072 -0.22636473 0.21473382 0.077338725 -0.21003017
-0.07559305 0.088299595 0.12891605 0.12687308 -0.25651738 -0.095140345 -0.111753345 -0.10573518
0.19103679 0.17869389 -0.12700512 -0.1642076 -0.060107645 0.05230136 -0.06763411 0.050207578
0.07969418 -0.22737853 -0.15228364 -0.07348026 -0.09358607 -0.029428847 -0.26118648 -0.14272545
-0.029864702 0.06135868 -0.36858782 0.35939372 -0.12946974 -0.29469627 0.25969356 -0.1726918
-0.09816372 -0.6618652 -0.20125823 0.34147587 -0.29532343 0.02509271 -0.5526043 -0.006242672
-0.08708482 0.20107892 -0.13060263 0.1788503 -0.18382742 0.5128464 -0.04418549 0.22925285
-0.15754206 -0.07595957 -0.2013905 0.30148712 0.080814935 0.16601703 0.1905062 0.29134256
-0.027719522 0.5118901 -0.10465539 -0.2927789 0.14833634 0.11287524 -0.20607145 0.40662906
-0.5581438 -0.16027522 -0.13416861 0.17051455 0.19584751 0.36221778 0.05461518 -0.20604613
-0.20445672 0.033782985 0.3629348 -0.22832817 0.415402 -0.20102303 0.42385408 0.15923698
0.2663692 -0.46270037 -0.4128444 -0.18148257 -0.26867297 0.24039198 -0.17162421 -0.26838553
0.056557745 -0.052894074 0.14725824 -0.098331444 0.12306889 -0.87192917 0.15668003 0.44850034
-0.14783052 -0.029007092 -0.26965296 0.05481141 -0.09630417 0.3806352 0.13132273 0.16712573
-0.29152837 0.49166018 -0.21903937 0.29631504 -0.4594043 0.04332826 -0.2112265 0.4806375
0.29564634 0.14941773 0.2655564 0.045537114 -0.36323577 -0.81814134 0.13391005 0.007853688
0.37969738 -0.25124305 -0.108898886 0.046824757 -0.17404614 -0.055181675 -0.0979394 0.19322078
-0.16739534 -0.5248922 -0.2926615 -0.22610389 -0.052277338 0.27577752 0.29303643 0.07734607
0.13777702 -0.24113578 -0.14145775 0.07504442 0.0052376124 0.04684543 -0.18238932 -0.29993075
0.55354345 -0.112326704 0.11651521 -0.05003589 0.083971485 -0.25773138 0.29230106 -0.16056503
-0.08016493 0.135398 -0.2702488 0.010699621 0.083506435 0.08232551 -0.0742674 0.083515696
-0.25671175 -0.26245072 -0.059698693 0.4468906 -0.004360177 0.3012211 0.0004125249 0.20424944
-0.22156298 -0.074591674 0.3415844 0.0088340985 -0.11355394 -0.11457433 -0.06598085 0.19418399
-0.14600569 -0.10923403 -0.33342895 0.15244207 0.033094242 0.04162186 -0.096760154 -0.23082095
0.050129797 0.08366929 0.06586325 -0.20892394 -0.14567308 0.29060474 0.042240363 0.022437591
00000000: 8127 9ebc 90c1 273f 46cb 50be 9bb4 6f3e
00000010: 4aab 423d 465e 8b3c 6a4d 963e 173b 813e
00000020: 2d92 293e 8b93 733e 98ae 91bd bb41 59bc
00000030: 24ec 29bd 8412 143f 42f6 cd3e da70 893e
00000040: a87d 3ebe 1b66 89bd 5e8d 313e 0ded 25bd
00000050: 9a33 87bd 8867 7c3d 8a2f eabd 06c6 993e
00000060: 159f a4be bb05 d03e e546 923e e2f4 dbbd
00000070: 5159 093e f646 a33d 75eb d23c 2635 a0bd
00000080: feef c13d 1fb5 903d 4dd5 cabe 2aed ce3c
00000090: 5588 9b3d c39d 83be f261 ea3c 6c41 e13d
000000a0: 8513 a43d 5f8c 8bbd 8c22 0cbd 5455 433e
000000b0: 1507 5dbe 6978 e13d 8fbb b83d 25aa 46be
000000c0: 8c8f 73bb a58d 92be bdae ac3e c13e c7bd
000000d0: 448e cebe 1f42 683e bed5 f3be 14d6 e5ba
000000e0: b2cc 43be 8706 c4bd 192f 853e 1a5f 36bc
000000f0: 28cc 67be 2fe3 5b3e c463 9e3d 2612 57be
00000100: 87d0 9abd 6bd6 b43d 9202 043e 04eb 013e
00000110: 3f56 83be f1d8 c2bd f0de e4bd b08b d8bd
00000120: 269f 433e 88fb 363e a10d 02be 0926 28be
00000130: 6f33 76bd f339 563d c183 8abd 76a6 4d3d
00000140: b436 a33d ebd5 68be 3ef0 1bbe d27c 96bd
00000150: 0eaa bfbd c414 f1bc 3cba 85be 9f26 12be
00000160: d2a6 f4bc 3d53 7b3d 8bb7 bcbe 7402 b83e
00000170: b793 04be 6ee2 96be 8ef6 843e 1fd6 30be
00000180: 0f0a c9bd ff6f 29bf a316 4ebe edd5 ae3e
00000190: a234 97be 3a8f cd3c 7a77 0dbf 548f ccbb
000001a0: 8759 b2bd a2e7 4d3e b2bc 05be 8824 373e
000001b0: 413d 3cbe e749 033f d8fb 34bd 42c1 6a3e
000001c0: b552 21be b190 9bbd 5039 4ebe 855c 9a3e
000001d0: 4d82 a53d 5e00 2a3e 0f14 433e da2a 953e
000001e0: 0d14 e3bc 3b0b 033f 9155 d6bd 1ee7 95be
000001f0: 7be5 173e 222b e73d 6504 53be af31 d03e
00000200: 83e2 0ebf 301f 24be 7f63 09be 5e9b 2e3e
00000210: 408c 483e 9c74 b93e 2bb4 5f3d c2fd 52be
00000220: 1a5d 51be 0760 0a3d 97d2 b93e dcce 69be
00000230: 92af d43e fbd8 4dbe 6703 d93e 050f 233e
00000240: 8b61 883e 10e7 ecbe 5760 d3be 91d6 39be
00000250: 818f 89be 5129 763e 42be 2fbe d469 89be
00000260: 18a9 673d 75a7 58bd ddca 163e ff61 c9bd
00000270: 8b0b fc3d c036 5fbf bb70 203e d6a1 e53e
00000280: e260 17be 48a0 edbc f40f 8abe ee81 603d
00000290: 1f3b c5bd 9ee2 c23e 7779 063e 0223 2b3e
000002a0: 3543 95be e2ba fb3e db4b 60be 9bb6 973e
000002b0: 0a37 ebbe f978 313d c24b 58be 1e16 f63e
000002c0: f55e 973e f600 193e 02f7 873e 2085 3a3d
000002d0: 0afa b9be b671 51bf b71f 093e c1ac 003c
000002e0: b267 c23e eea2 80be 6106 dfbd 51cb 3f3d
000002f0: 2739 32be 2e06 62bd 7494 c8bd abdb 453e
00000300: af69 2bbe 565f 06bf bad7 95be c787 67be
00000310: c320 56bd b632 8d3e df08 963e 9e67 9e3d
00000320: 6b15 0d3e 4cec 76be 4dda 10be e4b0 993d
00000330: 47a0 ab3b fee0 3f3d 44c4 3abe 8690 99be
00000340: 06b5 0d3f 8b0b e6bd 879f ee3d 6ff2 4cbd
00000350: 3ef9 ab3d 5ef5 83be 7ca8 953e 296b 24be
00000360: 832d a4bd c6a5 0a3e 0d5e 8abe 774d 2f3c
00000370: 6c05 ab3d 479a a83d 8219 98bd 470a ab3d
00000380: b96f 83be f15f 86be 9e86 74bd d8ce e43e
00000390: d1df 8ebb a739 9a3e 2848 d839 c426 513e
000003a0: 68e1 62be 85c3 98bd 27e4 ae3e e5bc 103c
000003b0: f88e e8bd f2a5 eabd f820 87bd 2bd8 463e
000003c0: 8482 15be 17b6 dfbd 33b7 aabe c619 1c3e
000003d0: d48d 073d af7b 2a3d 302a c6bd 545c 6cbe
000003e0: e754 4d3d ce5a ab3d 50e3 863d 28f0 55be
000003f0: 532b 15be 25ca 943e 3b04 2d3d 0acf b73c

model.layers.2.post_nns.0.0.bias f4 [30]
-0.16716385 0.01690313 -0.16922499 -0.037208427 -0.1782867 0.0468317 0.414301 -0.06342353
-0.18452507 0.17979838 -0.03126555 0.12807308 -0.1061377 0.18464144 -0.120013565 -0.4378814
0.012353953 -0.32264233 0.14799735 -0.22810932 -0.04925272 -0.2368623 -0.10791425 0.085052356
-0.091429755 0.018201508 0.0029957287 0.31040215 0.23803811 -0.061807178
00000000: 002d 2bbe 6f78 8a3c 5149 2dbe dd67 18bd
00000010: ca90 36be 99d2 3f3d 431f d43e 32e4 81bd
00000020: 24f4 3cbe 111d 383e 4e10 00bd 9725 033e
00000030: b95e d9bd a512 3d3e acc9 f5bd fe31 e0be
00000040: 3c68 4a3c 6031 a5be 9e8c 173e 7d95 69be
00000050: 38bd 49bd 088c 72be 2502 ddbd ee2f ae3d
00000060: 863f bbbd 541b 953c fd53 443b 08ed 9e3e
00000070: 43c0 733e 8629 7dbd

model.layers.2.lin.weight f4 [30, 30]
0.16765621 0.15145624 -0.14122452 -0.021282846 0.061368078 -0.21980335 0.16762672 -0.11387822
-0.27518576 0.32714084 0.25298154 0.06622734 -0.51703167 0.5196938 -0.14547622 -0.11988953
0.26080555 -0.3574842 0.067031406 -0.45012996 -0.13877791 -0.1660045 -0.12406786 0.016759545
-0.058965776 -0.24062738 0.04318894 0.7178286 0.20182131 0.49896535 -0.012497778 -0.16736668
-0.063213326 0.2709542 0.22352342 0.22007403 -0.27149132 0.11228874 -0.049445298 -0.3640614
0.24633513 0.08037593 -0.016422601 0.1147236 0.1033866 0.4433823 0.18624538 -0.12118285
0.039250173 0.2767649 0.20372145 -0.29496688 -0.022968782 -0.028972479 -0.030478423 -0.3556814
-0.19948459 0.991519 -0.18058103 0.24515001 -0.071421854 -0.029109444 -0.023187147 -0.16145934
0.097616635 0.07843634 0.02176063 0.13819343 0.03843172 -0.13406508 -0.25339982 -0.20860994
0.14528649 0.034981295 0.060794942 -0.2506344 -0.1986012 -0.10456134 0.27598113 -0.26230305
-0.07709501 0.2597578 0.4301521 -0.19539164 0.54590136 0.29743505 -0.4201674 0.044370506
0.31947497 -0.15045689 -0.22558698 0.47485703 0.019395297 0.02295472 -0.09419458 0.11072532
0.16202429 0.038406536 -0.064498916 -0.8279643 0.088754036 0.11989142 0.14582522 -0.0062304377
-0.14850253 -0.272391 -0.28231874 0.058952715 0.24327001 -0.011693369 0.36438924 0.39427868
0.11830018 -0.07611768 -0.15540646 -0.26788896 -0.04942916 0.26693794 0.060510226 0.14967532
-0.048648912 -0.004970974 -0.07408455 -0.14280345 0.23906116 -0.3196907 -0.14986292 -0.20634909
-0.40587956 -0.21654561 0.3568843 -0.25348032 0.42164052 -0.2058908 -0.40547577 0.12919547
-0.12041123 0.16995819 0.00432931 0.112423696 -0.039172307 -0.047599148 0.090037666 0.18745829
-0.055637334 0.057954613 -0.28436685 -0.16326807 0.19040205 0.0020071182 -0.29133216 0.47290725
0.32405338 0.31300375 0.008515859 0.034598347 -0.077427454 -0.44184285 -0.3374715 -0.17910314
-0.043984685 -0.26579246 0.0808576 -0.17359711 0.17900965 0.49140048 -0.070344806 0.009467021
0.258894 -0.19286175 -0.27416247 -0.46885845 0.44766358 -0.36489165 -0.054511122 -0.6751298
-0.1485694 -0.15377854 0.22460008 -0.07396336 -0.032272946 -0.41892585 -0.008770489 0.04790389
0.30447525 0.24927019 0.056821592 0.15181406 0.06426244 -0.28134462 -0.033334933 0.29744563
-0.092941955 0.08634797 0.17862724 -0.05721855 0.37071577 0.087004304 -0.009742519 0.40667984
0.13201837 -0.4765824 0.38402987 0.09757524 -0.20902702 -0.014790573 -0.08122069 -0.0042333035
-0.17382862 0.22341004 -0.07605855 -0.12400434 -0.38287082 0.31889963 0.4032378 -0.30018026
-0.19761994 -0.02593004 -0.004579477 0.3202939 -0.09227507 -0.5256408 -0.28016677 -0.009829709
0.3090788 0.27621663 0.10968253 -0.32527366 -0.032795787 0.18376993 0.08881507 -0.26254317
-0.028023355 0.21716242 0.15906782 -0.19033495 0.016807081 0.00092069304 0.45249832 0.116423994
-0.24284494 0.12552956 0.33068407 -0.03285506 0.06525886 -0.23901655 0.056242593 -0.20592442
-0.018057937 0.2667051 0.28689405 0.110896915 0.13209651 -0.05707321 0.27763456 0.0806281
00000000: 12ae 2b3e 5817 1b3e 299d 10be 5d59 aebc
00000010: 185d 7b3d 2114 61be 57a6 2b3e fc38 e9bd
00000020: 26e5 8cbe 017f a73e cc86 813e 33a2 873d
00000030: 305c 04bf a70a 053f b8f7 14be a488 f5bd
00000040: 4e88 853e 2b08 b7be c347 893d 6f77 e6be
00000050: cc1b 0ebe 15fd 29be 4a17 febd 504b 893c
00000060: 1986 71bd 0667 76be e3e6 303d 9dc3 373f
00000070: 3faa 4e3e 6378 ff3e 7bc3 4cbc 2c62 2bbe
00000080: fd75 81bd 82ba 8a3e 53e3 643e 165b 613e
00000090: e900 8bbe a4f7 e53d 2787 4abd 4166 babe
000000a0: 473f 7c3e 239c a43d b188 86bc 35f4 ea3d
000000b0: 5bbc d33d 0103 e33e 1cb7 3e3e b72e f8bd
000000c0: cac4 203d 21b4 8d3e 5b9c 503e e605 97be
000000d0: 0729 bcbc b157 edbc e3ad f9bc df1b b6be
000000e0: b045 4cbe 30d4 7d3f 3cea 38be 9b08 7b3e
000000f0: 9f45 92bd ee76 eebc f9f2 bdbc 9955 25be
00000100: 3beb c73d 3ba3 a03d 5943 b23c 9482 0d3e
00000110: 946a 1d3d 5b48 09be 9fbd 81be d89d 55be
00000120: fbc5 143e 8c48 0f3d 1e04 793d 2753 80be
00000130: 1d5e 4bbe 4124 d6bd 664d 8d3e 964c 86be
00000140: fde3 9dbd f9fe 843e e53c dc3e bf14 48be
00000150: 31c0 0b3f 6849 983e 2e20 d7be d9bd 353d
00000160: 3992 a33e 5f11 1abe 4600 67be 7620 f33e
00000170: e3e2 9e3c 890b bc3c 17e9 c0bd f5c3 e23d
00000180: b2e9 253e 2c50 1d3d 0218 84bd 78f5 53bf
00000190: adc4 b53d a289 f53d 3553 153e b328 ccbb
000001a0: 0c11 18be d576 8bbe 158c 90be 6778 713d
000001b0: c61b 793e 8b95 3fbc 3a91 ba3e e5de c93e
000001c0: 5d47 f23d 96e3 9bbd df22 1fbe be28 89be
000001d0: 3b76 4abd 17ac 883e 92d9 773d 7d44 193e
000001e0: 1544 47bd 8de3 a2bb a4b9 97bd 113b 12be
000001f0: 73cc 743e 80ae a3be aa75 19be 2d4d 53be
00000200: 72cf cfbe 22be 5dbe 8ab9 b63e 2cc8 81be
00000210: 44e1 d73e 0ad5 52be 859a cfbe d14b 043e
00000220: 2a9a f6bd 8509 2e3e e2dc 8d3b 653e e63d
00000230: 2473 20bd 53f7 42bd ab65 b83d 11f5 3f3e
00000240: f9e3 63bd d161 6d3d 8898 91be bf2f 27be
00000250: c1f8 423e db89 033b 7d29 95be e620 f23e
00000260: 53ea a53e 0742 a03e 1a86 0b3c ffb6 0d3d
00000270: 4992 9ebd 3a39 e2be 10c9 acbe d066 37be
00000280: 4929 34bd f315 88be ab98 a53d 71c3 31be
00000290: 4e4e 373e d898 fb3e f010 90bd 901b 1b3c
000002a0: c18d 843e 8d7d 45be 065f 8cbe 370e f0be
000002b0: 2934 e53e 14d3 babe 0e47 5fbd 4ed5 2cbf
000002c0: 9422 18be 1f78 1dbe 90fd 653e 1a7a 97bd
000002d0: a330 04bd 737d d6be 19b2 0fbc df36 443d
000002e0: 2ee4 9b3e af40 7f3e c2bd 683d 2575 1b3e
000002f0: 079c 833d 670c 90be 368a 08bd cb4a 983e
00000300: 5a58 bebd 34d7 b03d 0fea 363e 005e 6abd
00000310: 75ce bd3e 502f b23d 169f 1fbc 5738 d03e
00000320: d32f 073e 9c02 f4be 909f c43e 87d5 c73d
00000330: 2e0b 56be 2954 72bc 0857 a6bd 86b7 8abb
00000340: 2100 32be 9ac5 643e 96c4 9bbd fdf5 fdbd
00000350: a507 c4be d046 a33e 2f75 ce3e 3ab1 99be
00000360: e25c 4abe 3c6b d4bc 700f 96bb 90fd a33e
00000370: b6fa bcbd 6590 06bf 0572 8fbe ca0c 21bc
00000380: 943f 9e3e 446c 8d3e 3ca1 e03d 458a a6be
00000390: e054 06bd 2f2e 3c3e ade4 b53d 0f6c 86be
000003a0: 3c91 e5bc d35f 5e3e ade2 223e 2ae7 42be
000003b0: 01af 893c aa5a 713a dcad e73e b46f ee3d
000003c0: 58ac 78be d28a 003e 6c4f a93e 0793 06bd
000003d0: 70a6 853d c1c0 74be a25e 663d dadd 52be
000003e0: 3dee 93bc 928d 883e c7e3 923e ec1d e33d
000003f0: 4f44 073e 99c5 69bd 1e26 8e3e 5820 a53d

model.layers.2.lin.bias f4 [30]
0.29174754 -0.83080024 -0.31064522 0.07694855 0.15037344 0.09547026 0.09212803 -0.16671626
-0.5766249 -0.40235627 0.0689884 -0.22107203 -0.004505167 -0.4841743 0.08537778 -0.056667104
-0.790587 0.18130809 -0.24591234 -0.2443865 -0.06397905 -0.41584346 -0.4884367 -0.21694517
-0.4078109 -0.18903758 -0.72487247 0.2525319 0.10852127 -0.089858696
00000000: ef5f 953e 53af 54bf e40c 9fbe 3497 9d3d
00000010: 7ffb 193e e985 c33d 9fad bc3d abb7 2abe
00000020: b09d 13bf a401 cebe ca49 8d3d b560 62be
00000030: 14a0 93bb b2e5 f7be 8cda ae3d c41b 68bd
00000040: e963 4abf d4a8 393e 72d0 7bbe 7440 7abe
00000050: 7307 83bd 6fe9 d4be 6014 fabe e026 5ebe
00000060: 97cc d0be 1193 41be 3e91 39bf dc4b 813e
00000070: 6640 de3d d607 b8bd

model.layers.4.bias f4 [16]
0.86336976 0.14721094 0.004434595 0.046338428 0.27678734 0.3992913 -1.0739282 0.38373208
-0.13570893 -0.15817721 0.01010205 -0.43492317 -0.56647515 -0.31192625 0.092578575 -0.13383798
00000000: cd05 5d3f 77be 163e 1450 913b 5dcd 3d3d
00000010: 12b7 8d3e e96f cc3e 7b76 89bf 8878 c43e
00000020: 48f7 0abe 35f9 21be 1283 253c 40ae debe
00000030: 8404 11bf ccb4 9fbe d699 bd3d d30c 09be
